train dataset: size=32000
  inp: shape=(3, 2040, 1404)
val dataset: size=1600
  inp: shape=(3, 1356, 2040)
model: #params=6.5M
model: #struct=CLIT(
  (encoder): EDSR(
    (sub_mean): MeanShift(3, 3, kernel_size=(1, 1), stride=(1, 1))
    (add_mean): MeanShift(3, 3, kernel_size=(1, 1), stride=(1, 1))
    (head): Sequential(
      (0): Conv2d(3, 64, kernel_size=(3, 3), stride=(1, 1), padding=(1, 1))
    )
    (body): Sequential(
      (0): ResBlock(
        (body): Sequential(
          (0): Conv2d(64, 64, kernel_size=(3, 3), stride=(1, 1), padding=(1, 1))
          (1): ReLU(inplace=True)
          (2): Conv2d(64, 64, kernel_size=(3, 3), stride=(1, 1), padding=(1, 1))
        )
      )
      (1): ResBlock(
        (body): Sequential(
          (0): Conv2d(64, 64, kernel_size=(3, 3), stride=(1, 1), padding=(1, 1))
          (1): ReLU(inplace=True)
          (2): Conv2d(64, 64, kernel_size=(3, 3), stride=(1, 1), padding=(1, 1))
        )
      )
      (2): ResBlock(
        (body): Sequential(
          (0): Conv2d(64, 64, kernel_size=(3, 3), stride=(1, 1), padding=(1, 1))
          (1): ReLU(inplace=True)
          (2): Conv2d(64, 64, kernel_size=(3, 3), stride=(1, 1), padding=(1, 1))
        )
      )
      (3): ResBlock(
        (body): Sequential(
          (0): Conv2d(64, 64, kernel_size=(3, 3), stride=(1, 1), padding=(1, 1))
          (1): ReLU(inplace=True)
          (2): Conv2d(64, 64, kernel_size=(3, 3), stride=(1, 1), padding=(1, 1))
        )
      )
      (4): ResBlock(
        (body): Sequential(
          (0): Conv2d(64, 64, kernel_size=(3, 3), stride=(1, 1), padding=(1, 1))
          (1): ReLU(inplace=True)
          (2): Conv2d(64, 64, kernel_size=(3, 3), stride=(1, 1), padding=(1, 1))
        )
      )
      (5): ResBlock(
        (body): Sequential(
          (0): Conv2d(64, 64, kernel_size=(3, 3), stride=(1, 1), padding=(1, 1))
          (1): ReLU(inplace=True)
          (2): Conv2d(64, 64, kernel_size=(3, 3), stride=(1, 1), padding=(1, 1))
        )
      )
      (6): ResBlock(
        (body): Sequential(
          (0): Conv2d(64, 64, kernel_size=(3, 3), stride=(1, 1), padding=(1, 1))
          (1): ReLU(inplace=True)
          (2): Conv2d(64, 64, kernel_size=(3, 3), stride=(1, 1), padding=(1, 1))
        )
      )
      (7): ResBlock(
        (body): Sequential(
          (0): Conv2d(64, 64, kernel_size=(3, 3), stride=(1, 1), padding=(1, 1))
          (1): ReLU(inplace=True)
          (2): Conv2d(64, 64, kernel_size=(3, 3), stride=(1, 1), padding=(1, 1))
        )
      )
      (8): ResBlock(
        (body): Sequential(
          (0): Conv2d(64, 64, kernel_size=(3, 3), stride=(1, 1), padding=(1, 1))
          (1): ReLU(inplace=True)
          (2): Conv2d(64, 64, kernel_size=(3, 3), stride=(1, 1), padding=(1, 1))
        )
      )
      (9): ResBlock(
        (body): Sequential(
          (0): Conv2d(64, 64, kernel_size=(3, 3), stride=(1, 1), padding=(1, 1))
          (1): ReLU(inplace=True)
          (2): Conv2d(64, 64, kernel_size=(3, 3), stride=(1, 1), padding=(1, 1))
        )
      )
      (10): ResBlock(
        (body): Sequential(
          (0): Conv2d(64, 64, kernel_size=(3, 3), stride=(1, 1), padding=(1, 1))
          (1): ReLU(inplace=True)
          (2): Conv2d(64, 64, kernel_size=(3, 3), stride=(1, 1), padding=(1, 1))
        )
      )
      (11): ResBlock(
        (body): Sequential(
          (0): Conv2d(64, 64, kernel_size=(3, 3), stride=(1, 1), padding=(1, 1))
          (1): ReLU(inplace=True)
          (2): Conv2d(64, 64, kernel_size=(3, 3), stride=(1, 1), padding=(1, 1))
        )
      )
      (12): ResBlock(
        (body): Sequential(
          (0): Conv2d(64, 64, kernel_size=(3, 3), stride=(1, 1), padding=(1, 1))
          (1): ReLU(inplace=True)
          (2): Conv2d(64, 64, kernel_size=(3, 3), stride=(1, 1), padding=(1, 1))
        )
      )
      (13): ResBlock(
        (body): Sequential(
          (0): Conv2d(64, 64, kernel_size=(3, 3), stride=(1, 1), padding=(1, 1))
          (1): ReLU(inplace=True)
          (2): Conv2d(64, 64, kernel_size=(3, 3), stride=(1, 1), padding=(1, 1))
        )
      )
      (14): ResBlock(
        (body): Sequential(
          (0): Conv2d(64, 64, kernel_size=(3, 3), stride=(1, 1), padding=(1, 1))
          (1): ReLU(inplace=True)
          (2): Conv2d(64, 64, kernel_size=(3, 3), stride=(1, 1), padding=(1, 1))
        )
      )
      (15): ResBlock(
        (body): Sequential(
          (0): Conv2d(64, 64, kernel_size=(3, 3), stride=(1, 1), padding=(1, 1))
          (1): ReLU(inplace=True)
          (2): Conv2d(64, 64, kernel_size=(3, 3), stride=(1, 1), padding=(1, 1))
        )
      )
      (16): Conv2d(64, 64, kernel_size=(3, 3), stride=(1, 1), padding=(1, 1))
    )
  )
  (conv_ch): Conv2d(64, 256, kernel_size=(3, 3), stride=(1, 1), padding=(1, 1))
  (conv_vs): ModuleList(
    (0): Conv2d(256, 256, kernel_size=(3, 3), stride=(1, 1), padding=(1, 1))
  )
  (conv_qs): ModuleList(
    (0): Conv2d(256, 256, kernel_size=(3, 3), stride=(1, 1), padding=(1, 1))
  )
  (conv_ks): ModuleList(
    (0): Conv2d(256, 256, kernel_size=(3, 3), stride=(1, 1), padding=(1, 1))
  )
  (pb_encoder): PositionEncoder(
    (proj): Linear(in_features=64, out_features=8, bias=True)
  )
  (imnets): ModuleList(
    (0): MLP(
      (act): GELU(approximate='none')
      (layers): Sequential(
        (0): Linear(in_features=12546, out_features=256, bias=True)
        (1): GELU(approximate='none')
        (2): Linear(in_features=256, out_features=256, bias=True)
        (3): GELU(approximate='none')
        (4): Linear(in_features=256, out_features=256, bias=True)
        (5): GELU(approximate='none')
        (6): Linear(in_features=256, out_features=256, bias=True)
        (7): GELU(approximate='none')
        (8): Linear(in_features=256, out_features=3, bias=True)
      )
    )
  )
)
epoch 1/1000, lr:0.0001, train: loss=0.0425, val: psnr=25.6344, 3.0m 3.0m/50.4h
epoch 2/1000, lr:0.0001, train: loss=0.0374, val: psnr=25.9683, 2.7m 5.8m/48.0h
epoch 3/1000, lr:0.0001, train: loss=0.0371, val: psnr=25.8491, 2.7m 8.5m/47.2h
epoch 4/1000, lr:0.0001, train: loss=0.0362, val: psnr=26.0130, 2.7m 11.2m/46.8h
epoch 5/1000, lr:0.0001, train: loss=0.0362, val: psnr=26.0555, 2.7m 14.0m/46.6h
…
